model.tflite (tflite, 64680 bytes, 6 tensors)

arith.constant f4 [29, 64]
00000000: 8cde 9a3e 7ef4 e13e 58b1 13bf 8eae 243e
00000010: 0d9c 9b3e d3b1 1c3f f846 df3e 9e8f 7ac0
00000020: 229b 953d 17e8 d13d 5be6 033e ceca 24c0
00000030: 0b51 a53c 2bd3 11bf 7496 b73e a0c0 f1be
00000040: 507e 043d 9094 b0be b090 c7bd e0df f63e
00000050: e8c2 abbf 6542 c23d e465 dabd 833b 18bf
00000060: f9fc 0b3e 29ed 1cbf cb53 9bbe 0be1 77be
00000070: d72d 11bf c3dc f5bd ac66 84be 6fea a03e
00000080: 6a19 1b3e 469a 103f 1886 053e 2f5e c1be
00000090: 054f 383e 363c cfbd 628c d9bf 70a6 4d3c
000000a0: 47ba 92be fedd 3d3f 63a0 55bf 96e0 3cbf
000000b0: 8c82 0f3e d862 1b3f af95 cdbe ad22 293e
000000c0: dae2 593d dc28 15bf 075b 613c 1a61 e53d
000000d0: 0fad 49bd 2192 bc3e 9f6e 9dbf eb46 f4be
000000e0: 419d 6bbf 2e78 b73e 8954 60be 1211 e9bf
000000f0: 4fb1 323e 7c2d 22be fb56 2a3f b235 8bbd
00000100: 5539 273e 63c2 a9bf 0e09 e93d b4f6 72be
00000110: 5e5f 163e 2c0b 0ec0 606b 9abf 570e 593e
00000120: 922d 8b3e 3451 4bbf d037 86bf 49b0 8dbf
00000130: b6f7 623e fa15 45bf 951c 40bd 3fc2 59be
00000140: e0ac b23e dfb3 fb3d 43d8 f63d 19fd dabe
00000150: eb35 93bf 530e eabe 611d b2bd 48b8 17bf
00000160: 755a 93bd 055c b2be 4217 843f dfb8 53ba
00000170: 7414 bdbe 48ed 3fbf 3d6a ff3e 6269 e8be
00000180: e87a 08be d796 f5bf a6f9 a5bc 2981 ae3d
00000190: 3ad3 a7bf 0309 fd3c 8949 27be f7d1 a93e
000001a0: b332 35bf efff f9bf e653 963e 5733 f43e
000001b0: 36cc e9be ebbb 403e 1714 f23e 8612 cebe
000001c0: 3ad8 f83e 19a5 1fbf 3951 a43a aee1 dabf
000001d0: cb8b 123e 0bae d5be 0665 f93c 9f94 79be
000001e0: 1824 5c3e 09af b5bf 38ea d73e 396d 4c3e
000001f0: 1fcf ae3d 79b2 ca3e b254 eb3e a4ec fcbd
00000200: b64f 3c3d cb08 08c0 76e3 323e c491 dbbd
00000210: 5de8 9bbe df2c 113f f364 a7bd 025c dcbe
00000220: b1d0 c63e 5dfd 16bf cae6 c0bc 0cfa 693d
00000230: b62d c13e 5280 45bf 899b 6cbf 1ab8 58bf
00000240: b9c1 dfbf 9382 8dbe 404a 823e 1f7e 73bf
00000250: 5820 0d3e f54f ee3d 7a52 2a3e c59b 35bf
00000260: 6a99 91bd eaa4 733e 66e5 6ebf 73c8 f2bf
00000270: 08d2 3cbd cd76 79be 96e4 aebe a118 dfbd
00000280: a03f 6abe b245 cc3e f916 f23d f31f 04bf
00000290: e5f7 f3bd fcc7 91bf b08b 0a3e 2a96 8f3e
000002a0: 6088 d13e f31e fc3e fadf b93e 7474 41bf
000002b0: b939 363d c109 3abf 0af6 1d3f b181 033e
000002c0: 5bcc 243f b25d 41bf cfb5 c3bd 3458 d33c
000002d0: 09b7 acbe 8ee4 52bf 96d1 073d 2e08 883e
000002e0: 7801 213e d312 30c0 a26c 31bf 830b 2a3f
000002f0: 7b75 8ebe 1dba 053e adad 803e d75e 0bbe
00000300: 159c 07be 2550 87be 577b 163f c3fd 2d3e
00000310: 37d5 96bf 0751 ab3e 1854 abbe 2ba7 733e
00000320: e0f0 6cbe 7389 4bbe 816f 24c0 bb82 96be
00000330: 35cf a5bd 179f f8be 35dc cb3c 5339 b23e
00000340: 29c4 293c 714b 673e 8430 12bd 4522 ffbe
00000350: d883 a7bd c620 d63e c981 533e c82a 67bf
00000360: 2e8b 5dbd 8ce9 193e 8201 793e 85d9 20be
00000370: 544d 503e 0eff 3ebe 57d2 033f e97c d0be
00000380: 238a 87bf 8559 99bf d7a4 14be 36d5 fdbe
00000390: 29ea 9bbf 501f 893c eb8d febc 892d 663d
000003a0: 76b7 55be 7956 7b3e 741a 2c3f fc4a 303d
000003b0: 35de 233e c099 c5be 0ab3 093f b704 46bf
000003c0: 99f6 613f 1857 20bf 8b5d 3bbd c809 90be
000003d0: 04d5 92be 5f2a 00bf 40de 6b3e c03f 9f3e
000003e0: 7cf1 f83e 1ede 323e 713c 72bd 9346 c33e
000003f0: 6fd3 c2bd 9181 8cbd 4508 ccbe d37d 953d
0.30247915 0.44131845 -0.5769248 0.16082212 0.30392495 0.6120884 0.43608832 -3.9150157
0.0730498 0.10249346 0.12880842 -2.5748782 0.020180246 -0.5696284 0.35856974 -0.47217274
0.032347023 -0.34488344 -0.09744394 0.48217678 -1.3418856 0.0948532 -0.10663965 -0.5946581
0.1367072 -0.6129938 -0.30337366 -0.24206941 -0.5671057 -0.120049976 -0.25859582 0.3142886
0.15146413 0.564854 0.13039434 -0.3776717 0.17998894 -0.10118906 -1.6995966 0.012551889
-0.28657743 0.7416686 -0.83447856 -0.7378019 0.14014643 0.606977 -0.40153262 0.16517134
0.053194858 -0.5826547 0.013754613 0.11200161 -0.049237307 0.36830238 -1.2299384 -0.47710356
-0.92036825 0.35833877 -0.21907248 -1.8208334 0.1745045 -0.15837663 0.6653897 -0.06797351
0.16330464 -1.3262447 0.1137868 -0.23726922 0.14684817 -2.2194319 -1.2064018 0.21196876
0.27183205 -0.7942078 -1.0485783 -1.1069423 0.22164807 -0.7698666 -0.046902258 -0.21265505
0.34897518 0.12290167 0.120529674 -0.42771223 -1.150083 -0.45714054 -0.0869701 -0.59265566
-0.07194988 -0.3483583 1.0319598 -0.0008076559 -0.36929667 -0.7497144 0.4988574 -0.453929
-0.13328135 -1.9186658 -0.020260643 0.08520729 -1.3111336 0.030888086 -0.16336645 0.33168003
-0.70780486 -1.953123 0.29360884 0.4769542 -0.45663613 0.18821685 0.47280952 -0.40248507
0.48602468 -0.62361294 0.0012536413 -1.7100122 0.1431114 -0.41734347 0.03044368 -0.243731
0.21498144 -1.4194041 0.42170882 0.1996354 0.08535599 0.3958929 0.45963055 -0.12349823
0.045974456 -2.1255367 0.17469582 -0.10721162 -0.30450717 0.5670909 -0.081735514 -0.43038946
0.38831094 -0.5898035 -0.023547549 0.05712323 0.37730187 -0.77148926 -0.9242483 -0.84655917
-1.7480994 -0.27638683 0.25447273 -0.9511432 0.1378187 0.11636344 0.16633025 -0.7094081
-0.071093395 0.23793378 -0.93318784 -1.8967422 -0.04609874 -0.24361725 -0.34158772 -0.108933695
-0.22875834 0.39896923 0.11820788 -0.5161125 -0.119125165 -1.1389155 0.13529849 0.28044254
0.40924358 0.49242362 0.36303693 -0.7556832 0.044488642 -0.72671133 0.6170355 0.12842442
0.6437432 -0.7553359 -0.095561616 0.025798894 -0.33733395 -0.82379997 0.03315886 0.2656874
0.15723217 -2.751149 -0.69306386 0.66423815 -0.27824005 0.13059278 0.25132504 -0.13610397
-0.13243134 -0.26428333 0.5878195 0.16991334 -1.1783818 0.33460256 -0.33462596 0.23794238
-0.23138762 -0.19876651 -2.5693057 -0.29396614 -0.08096162 -0.48558876 0.024885276 0.3480936
0.01036171 0.22587372 -0.0356908 -0.49830833 -0.08179444 0.4182188 0.20654978 -0.90299654
-0.05408781 0.15030497 0.24316981 -0.15707977 0.20341998 -0.18651983 0.5149283 -0.407203
-1.0589031 -1.1980444 -0.14516006 -0.4957673 -1.2180835 0.016738564 -0.031073531 0.05619577
-0.20870766 0.24544705 0.67227864 0.04304026 0.16002734 -0.38593864 0.53788817 -0.77350944
0.88266903 -0.62632895 -0.045743506 -0.28132463 -0.28678143 -0.50064653 0.23034 0.31103325
0.48621738 0.17467543 -0.059139673 0.3813978 -0.09512984 -0.0686065 -0.3985006 0.0729939

arith.constant1 f4 [64, 128]
00000000: 329e cfbe f8c3 a2be e2e3 503e d755 af3d
00000010: 3dc6 143e 4a18 d6be 2e08 0fbf 54fa e3bd
00000020: 59b6 103e 8ae7 623e 070b 35bd 9dde 793d
00000030: e2f6 07bf 9781 2cbf 4a79 573e d13e 8d3f
00000040: 64bc 67be 6b90 433e 1ba1 93be 2d40 4fbf
00000050: b778 b73e 76c3 8dbd f06a 9d3c 7c16 653e
00000060: a51b 053e 97b1 5abc 01d8 823e 96bd 33be
00000070: 2a67 1e3f b755 5d3f 3f1d 00be f058 463d
00000080: 28e3 153f f4b8 ea3d d34b e23d 4053 05be
00000090: bcf9 13bc a37a a33e b08d 33be aca1 8dbe
000000a0: 7f42 a43d b267 5abd 889e c93e 38e2 d6bd
000000b0: d059 2d3f f224 d3be be23 5e3e 8600 073f
000000c0: 495f 8c3e 4587 be3e a9ec 0e3f 5648 80be
000000d0: 7e36 18bf 9138 5f3f 7ea1 0f3f 9308 a0be
000000e0: 403f 62be bc56 b8be c5b6 b93e e0f1 54bc
000000f0: a25f bbbd 089a 063e 9ed9 5abf c828 ab3f
00000100: 3620 00bf 7e54 2fbf 9dbf e43d 9399 97be
00000110: 9aa1 e9be 7942 683e 4948 0fbf 8fea 8c3f
00000120: e6ae 6b3e 5472 1ebd 0950 c3bd c756 acbe
00000130: 3317 a93b 3e6e bebc 725a be3e df58 47bf
00000140: 1d57 2c3e b22c b8bd 4421 773f f4d3 afbe
00000150: 2a64 7d3d 5b88 813e c462 5cbd b92a bbbe
00000160: e087 40bf 31c6 f03e d9e7 3abe 5841 763d
00000170: e365 33be 7ec9 e3be cc13 723e ade5 83bd
00000180: 7db0 2c3d 4414 8e3e c26d 933e cc65 8ebe
00000190: 8e03 473e f535 d63e b483 2abe 0cf1 063e
000001a0: 14ab 123f db71 c4be cf58 d73e e8bf 393d
000001b0: 4369 2ebf ec88 20bf 3342 28be 24f9 d5be
000001c0: bcec 70be 8660 cc3d 1655 83be 5f00 d0be
000001d0: 805b 81be 1d3d 8d3f c72d 103d ae51 80bb
000001e0: c0e2 7f3d 91c4 9d3e b675 4e3e 6ac7 efbe
000001f0: e65e bbbd 4b7a 68be 9b19 aa3e ba4f 20be
00000200: 0dd0 993e 36fb b9be 8f75 a13c f491 30bc
00000210: d86a 31bd 9cae 953e abb6 dfbe ef73 9e3f
00000220: 3146 543e 8a7a 043f 5a9d 8a3f 3ac5 a6be
00000230: 5024 adbe 1dd1 34bf 7926 09bf 91e0 133f
00000240: ca0f 5e3c c1cc b03e 5d14 343e 2217 d5bc
00000250: 0224 333f c231 debd e21a 7abd f66c b23e
00000260: c01d 2cbe 0ffe 69bf 953f 38bf 605b 2abf
00000270: dbd9 253f c62b 8c3e 4018 233e 8a13 ce3d
00000280: 4878 57be 4069 b43e a000 45be 309f 45bf
00000290: 05d3 80bd a48b 93be f888 6abf e318 b5be
000002a0: a675 7dbe 4e47 f63d 8ceb 2a3f f5ff 103f
000002b0: ec47 53bc 7007 91bd a375 ed3e e9f6 ba3e
000002c0: fbfd 203f 3cc1 0f3e f556 9f3e 1fca 5f3e
000002d0: 2c04 55bd ac3c aebe 1134 70be c1aa 283f
000002e0: d3fd 853e 97cc 5e3e 93c2 913d 9715 2cbe
000002f0: de65 0f3f 84b9 a0be eb06 31bf 5adc 68bf
00000300: 7a86 09bd 4b23 103f f19e d8bd 8587 7b3f
00000310: 31ca 1e3e c860 76be 2e52 8bbf 5453 d5bd
00000320: 7277 4d3e b269 d2be c172 ab3e 842e 063e
00000330: 9c91 be3e c877 c73e 01ea 71bf 6a20 013e
00000340: 31b0 d93e 8e90 923e 93e7 04bf dfe1 9d3e
00000350: 2cfd 5e3d 5218 5a3e 408a 0dbc 9842 a0be
00000360: 065b 81bd ca67 833e 8bf6 0f3f 0f2e 323e
00000370: 42be e83d d41b 783e e5e5 1abe 1b4e 02be
00000380: 21c2 31be 8e46 993d 0e23 2dbf a7bf a73d
00000390: f9e2 553e 1af5 043f c60e 12be 21ed 183e
000003a0: b69b 273f b2bf c5be 002c bb3e 3e5b 19be
000003b0: 0013 6cbd 7193 2bbf 77d4 e2bd 85da 92be
000003c0: ef1e afbf 1b92 403f 338b 39bf 968b 05bf
000003d0: 5658 ffbe 7c8a 693e dc5e 24be e643 b83e
000003e0: 7eca 353e 1091 fa3e f116 86be edc0 3cbe
000003f0: 839b 84bd ec63 3cbf 6d38 203f 49d5 abbd
-0.4055038 -0.31790137 0.2039943 0.085612945 0.14528747 -0.41815406 -0.55871856 -0.11131731
0.1413206 0.22158638 -0.04419997 0.061003316 -0.5311109 -0.6738524 0.21042362 1.1034795
-0.22630459 0.1909806 -0.2883385 -0.809573 0.35834286 -0.06922047 0.01921603 0.22371858
0.12998827 -0.013348005 0.25555423 -0.1755279 0.61876166 0.86458915 -0.12511156 0.04842466
0.5854974 0.11461058 0.110496186 -0.13020039 -0.009031709 0.31929502 -0.17534518 -0.27662408
0.080204956 -0.053321548 0.39378762 -0.104923666 0.6771517 -0.41239125 0.21693322 0.52735174
0.27416447 0.37212577 0.55829865 -0.25055188 -0.5945815 0.8719569 0.5610579 -0.31256542
-0.2209444 -0.36003673 0.36272255 -0.012997121 -0.091491 0.13144696 -0.8548831 1.337182
-0.5004915 -0.684883 0.1116936 -0.29609355 -0.45631105 0.22681607 -0.55969673 1.1009082
0.23015937 -0.03868325 -0.0953675 -0.33659956 0.0051602363 -0.023245927 0.3717838 -0.7786998
0.16830106 -0.089929 0.96535134 -0.34341395 0.061863102 0.25299343 -0.053805128 -0.36556032
-0.7520733 0.47026208 -0.18252505 0.06012091 -0.17519335 -0.44489664 0.23640364 -0.064402916
0.0421605 0.27749836 0.28794676 -0.2781204 0.1943495 0.4183804 -0.16651803 0.1317789
0.57292295 -0.38368115 0.42059943 0.04534903 -0.68129367 -0.62708926 -0.16431503 -0.41791642
-0.23527807 0.09979348 -0.25650853 -0.40625283 -0.2526512 1.1034275 0.035199907 -0.003915987
0.062472105 0.3081403 0.2016209 -0.46831828 -0.0914896 -0.22702901 0.3322266 -0.15655413
0.30041543 -0.3632447 0.019709377 -0.010776985 -0.043314785 0.2923478 -0.43694052 1.237913
0.20729901 0.5174948 1.082927 -0.32572347 -0.33816767 -0.7063158 -0.5357433 0.57764536
0.013553569 0.34531215 0.17585893 -0.026012007 0.6997682 -0.10849334 -0.061060794 0.34848756
-0.16808224 -0.9140329 -0.7197202 -0.6654568 0.64785546 0.27377146 0.1592722 0.100623205
-0.21041977 0.3523655 -0.1923852 -0.77196026 -0.06290249 -0.28817475 -0.9161525 -0.3537055
-0.2475191 0.12025319 0.66765666 0.5664056 -0.0128955655 -0.07081497 0.46378812 0.36516502
0.62887543 0.14038557 0.3112103 0.21854447 -0.05200593 -0.34030664 -0.23457362 0.6588555
0.26170215 0.21757732 0.0711719 -0.16805111 0.5601481 -0.31391537 -0.6915118 -0.9096123
-0.033575512 0.5630385 -0.10577191 0.9825366 0.15506817 -0.24060357 -1.0884454 -0.10416284
0.20065096 -0.41096264 0.33485988 0.13103682 0.37220466 0.38958573 -0.94497687 0.12610021
0.42517236 0.2862591 -0.51915854 0.30836388 0.054440662 0.2129834 -0.008638918 -0.31300807
-0.063161895 0.25665122 0.5623557 0.17400382 0.11364414 0.24229366 -0.1512676 -0.12725107
-0.1735921 0.0748416 -0.67631614 0.08190852 0.20887364 0.51936495 -0.14263448 0.14934207
0.6547197 -0.38622814 0.36557007 -0.14976212 -0.057635307 -0.6702185 -0.11075681 -0.28682342
-1.3681315 0.7522294 -0.72478026 -0.52166116 -0.49872082 0.22806734 -0.16051811 0.35989302
0.17753026 0.489388 -0.26189378 -0.1843297 -0.06474974 -0.7358997 0.625861 -0.0839029

arith.constant2 f4 [29]
00000000: ecf7 cf3d 2c1f cfbc 0ffe 633e b0c5 513c
00000010: 4828 b73d c0c0 023d 6eae 14be c86e 51be
00000020: 0f0f c73d 5c74 373e 5a2f 9e3e afa1 b5be
00000030: d5a6 ffbd 8c0f e73c 6112 443e 3503 113c
00000040: 9c66 2fbd 139a c6bd 0a72 5c3e 803b 91be
00000050: 3359 563e 4f09 063d 506d 41be c98e e4bb
00000060: 1ab3 a0bd 50b1 01bf 6339 84be 4016 213e
00000070: ba23 f43e
0.10154709 -0.025283419 0.22264884 0.01280348 0.0894323 0.031922102 -0.14519665 -0.20452416
0.09719669 0.17915481 0.308955 -0.35474917 -0.124829926 0.028205656 0.19147636 0.008850862
-0.042822465 -0.09697356 0.21527877 -0.28365707 0.20932464 0.03272372 -0.18889356 -0.006975029
-0.07846661 -0.5066118 -0.25825033 0.15731144 0.47683507

sequential_1/dense_1_2/BiasAdd/ReadVariableOp f4 [64]
00000000: 3899 823e dccd b33e 4833 d63c 566e 89bd
00000010: 0794 f53d cfa0 8a3d 8ad5 1f3e f254 533e
00000020: 2c6d 0d3d d881 8abd 7728 e33d a7bd 0b3e
00000030: b132 9cbc 0737 97bd 47d1 91bc 0cf4 d0bc
00000040: 3ec0 8d3d 2c12 67bd 24ae 163e e0c6 e93d
00000050: 8b52 0ebd b436 fd3d 8315 183d 04fa 323d
00000060: 8e5d 6abd 6f30 9dbd 290b 073e 0e51 fb3d
00000070: 94fd d93e 5462 b0bc 5a5a 173e f858 7a3e
00000080: 4493 4cbe 69d7 013e 8cb6 44bd 0148 0abe
00000090: f7cf 8d3e dde6 aabc 1359 903e 45b0 823e
000000a0: 4e21 493e 436f c43e 8cd1 173e 30a7 833c
000000b0: 5a95 f33d 3583 a5bd c485 dd3d 86b2 e53a
000000c0: 1101 223e fbd9 2f3e ae58 bbbc 3d6f 11be
000000d0: 4451 03bd a2fe 5e3d 854c e63d 5414 36ba
000000e0: 63c8 1fbe 3f6e 5c3e 012f 7f3d 701a 073e
000000f0: 7b48 01be 8873 423d 2361 9a3e 4b44 f3bc
0.25507522 0.35117996 0.0261475 -0.06710498 0.119911246 0.06768953 0.15608802 0.20637873
0.034527943 -0.06763047 0.110917024 0.13646565 -0.01906714 -0.073835425 -0.017799987 -0.025506996
0.06921433 -0.056413814 0.14714867 0.114148855 -0.034746688 0.123639494 0.03712989 0.043695465
-0.057218127 -0.076752536 0.13187851 0.12271319 0.42576277 -0.021531262 0.1478056 0.24448001
-0.19978052 0.12679829 -0.048025653 -0.1350403 0.27697727 -0.020862037 0.28192958 0.25525108
0.19641611 0.38366136 0.1482603 0.016070932 0.11893721 -0.080816664 0.108165294 0.0017524518
0.1582072 0.17172997 -0.022869434 -0.1420259 -0.032059923 0.054442056 0.11245064 -0.0006945778
-0.15603785 0.2152643 0.062300686 0.13193679 -0.12625305 0.04747346 0.30152234 -0.02969565

sequential_1/dense_1/BiasAdd/ReadVariableOp f4 [128]
00000000: 718b 613e 6323 cf3d c1e0 cd3e a38c 20bd
00000010: 0000 0000 8ede 873e 8063 b53d a9e4 c33d
00000020: 24b4 0f3e 3619 b5bc 6f24 bc3e 7729 093d
00000030: 5901 20be 1cbc 42be 131a 033f 85db fc3e
00000040: f74a 30be 3d2f e43e a643 373c 1f40 42be
00000050: ccfb ba3e 5c90 b4bb a25b 23bc 049c 32bd
00000060: 0ac7 cd3d 6d53 763e 4544 eb3d 269a 42bc
00000070: f4ec 8e3c 97d9 883d 175b 8dbc 0000 0000
00000080: 3d5f 973e 8afe a03d c9b6 643e 46ec 753d
00000090: 4616 f93e 622c a6bd 5426 04bc 0fcf 0bbe
000000a0: 1cd6 663e bde7 9a3d 7a4c a63e 70dc 17be
000000b0: 7fe6 0e3e c66a d9bc 531d 1f3f f5b6 78be
000000c0: 0f83 a43e 8f84 fd3e 9d74 de3d 4a19 623d
000000d0: 3d92 8e3d 573f 243d b883 4b3e c372 07bd
000000e0: fd04 683e e71b b43d 633e 713e 0000 0000
000000f0: 47b4 3ebd 5914 f33d 985b 85bc 8ccd d83d
00000100: 7b7e 413d d971 88bc 94e7 7e3e 7ec0 553e
00000110: 88c9 a73d f341 b13e 3387 9f3d e98b 32bf
00000120: c1be 1a3e f911 f23e e0bf e23e 47c1 92bc
00000130: e3fc 943d da1b d73d 4d9e c83d a596 bf3d
00000140: b6c4 b43e fc52 4f3d 608b 3cbd 9215 aabe
00000150: a5ba b9bb 652d 153d 0000 0000 0f58 073e
00000160: 3a38 22be 468c 9f3e 747b 053f e5ae 643b
00000170: 0000 0000 58e1 cf3d 4d10 563e 0000 0000
00000180: dd54 afbd f8a7 87be 3bfe d13d 2159 ce3d
00000190: e56e 9c3e 09e3 6c3e c90b 1ebe eb7a 8abc
000001a0: 2f97 993e 9dc2 b2bd a95e c53d fc25 863d
000001b0: 12c1 a3bc c834 e7be ad72 9ebc 941a 82be
000001c0: 90de 6e3e d458 c73e ad38 a63d 2393 63be
000001d0: ea37 d93d 2077 b93d fe9b 56bc aca0 1e3e
000001e0: d1ea 2b3e e949 a1bc d019 d03e b9a6 e13d
000001f0: e9fe 2dbc a74f 2abe 04cb 273e 688c 1fbe
0.22025849 0.10114171 0.40210536 -0.03919662 0.0 0.26536983 0.08856869 0.09565098
0.14033562 -0.022106748 0.36746547 0.03348681 -0.15625514 -0.1901707 0.5121166 0.4938623
-0.17216097 0.4456729 0.011185562 -0.18969773 0.3652023 -0.005510373 -0.009970577 -0.04360582
0.10047729 0.24055262 0.11487631 -0.011877572 0.017446972 0.06682127 -0.01725535 0.0
0.2956485 0.078610495 0.22335352 0.06003978 0.48649806 -0.08113934 -0.008065779 -0.13653205
0.22542614 0.07563732 0.32480222 -0.14830184 0.13955115 -0.026540171 0.6215412 -0.24288543
0.3213124 0.49515197 0.10862086 0.0551999 0.069614865 0.040099468 0.19874465 -0.03306843
0.22658153 0.087943844 0.23558955 0.0 -0.046558645 0.118691154 -0.016279027 0.1058608
0.04723976 -0.01665585 0.24893028 0.20874211 0.08192736 0.34620628 0.07789459 -0.69744736
0.1511183 0.47279337 0.44287014 -0.017914427 0.07274797 0.10503359 0.097958185 0.09354905
0.3530633 0.05061625 -0.046031356 -0.33219582 -0.0056680017 0.036420245 0.0 0.13217185
-0.15841761 0.31161708 0.521415 0.0034894284 0.0 0.10150403 0.20904656 0.0
-0.08561108 -0.26495337 0.10253569 0.10075594 0.30553356 0.23133482 -0.15434183 -0.016904315
0.29998156 -0.08728526 0.096371956 0.06550214 -0.019989524 -0.45157456 -0.019341791 -0.25410903
0.23327088 0.38934958 0.08116279 -0.22224097 0.10606368 0.090559244 -0.013098715 0.15490979
0.16788794 -0.019688563 0.40644693 0.11018128 -0.010619857 -0.16631947 0.16386038 -0.15580904

sequential_1/dense_1/MatMul f4 [128, 42]
00000000: c248 a6be 9cb0 a13e f3b6 0c3d e68d 0e3e
00000010: bac3 023f 3e20 193e a8a8 933e c85d c33d
00000020: d870 a2be d996 72be e27a 563f eaed 03be
00000030: d192 273f 94e0 18bf a9d4 013e fc74 f4bf
00000040: 1dff 7abd 9052 0ec0 1312 2e3f 4c01 df3d
00000050: 5c87 823e 0f01 09bf 6a0e 3ebd bd06 e7be
00000060: bb6d 5e3d 285a cfbe ad95 b13c 2813 3bbe
00000070: edca a1bd e6dd 00bf afa1 8dbe 3be5 dbbe
00000080: 48e5 40be 7435 acbe 463e 2fbf 43fb 203e
00000090: 5508 2cbf 30d9 8abe c61c 6abe 6665 253d
000000a0: 0f6b 2e3e 49b1 053e 950b cc3e 4af1 f93c
000000b0: 428c 893e e319 38be 692c 9c3e 8989 97be
000000c0: 054c 0c3d 66f5 1a3e 45d4 b53c 7990 a63f
000000d0: 21ce ad3c 617b c1be 027a 0d3e 67a8 e0be
000000e0: ce76 ddbd d577 18be 2420 fe3d 9618 dabe
000000f0: fd37 993d bff9 91bc e9df 80be 79c6 a63d
00000100: 1b24 cb3d 7b7a 39bf 500a c43c 2ef7 66bf
00000110: fcb9 023d 4cf1 02be 042f c3be 79f1 f63e
00000120: 4668 033d 3dd2 b2bd aa74 133d 0f0a 94be
00000130: d006 d0bd c865 34bd 2d8f 63be ab4d 2a3f
00000140: 4ce9 bfbe 9442 a13e 21f8 f8be 010d af3d
00000150: 4a00 323f 4059 1dbe 9f83 ca3e b443 81be
00000160: 0556 0abd 9605 04bf 0a32 05bf 7e6d 1b3e
00000170: 5c5a 1cbf 2215 1e3f 08f9 f1bd 77b7 83bf
00000180: 1550 9b3e dd42 e2bd 69ae a93d a769 61be
00000190: af7a 053e 6d3a 273f c336 0fbe 6e5b 75bf
000001a0: 7aee f6bd 472e 233e d286 ebbd 11a9 e9bc
000001b0: 18c9 babe c36a 1b3f 678a d6be a9d1 25bf
000001c0: 3fe3 f7bc 7f4f 8b3e 69b3 e0bd f8cf af3e
000001d0: 8e08 d6be 22ce 873e fd7e b7be 8cf8 bbbe
000001e0: 37bc a5bd 821b c53e 9dc6 64be 1317 8a3e
000001f0: 9178 e4be 1d0f 0c3f 8d36 2bbd 447b 3bbe
00000200: 708a a83d cf3b 21be a411 c9bc fe53 f2bc
00000210: 84aa adba 407b 1ebe 019a 92bd af62 05be
00000220: fa51 54be de02 87bb 54a4 edbd 304a 023e
00000230: 615a 45be 75b6 d53d 06f9 33bc 8206 2dbe
00000240: d9ae eb3c c46e ea3d edff fa3d 8506 a53d
00000250: 2acf ff3d bdc2 403c 7012 953d f904 b0bc
00000260: cf41 dbbd 92c9 9fbd b68e 01be dedc 98bd
00000270: 63f4 d9bd cfba 2bbe b9c6 2b3d 08e2 0b3e
00000280: 2cf0 a73a 8f54 b73d 58b3 163d 2983 b9bd
00000290: 02f3 76bd a535 cf3b 624e a6bd d788 a53d
000002a0: 499b 3ebe 3841 863d ba5d 063e 1d5b 38be
000002b0: f768 a4bd f00b d5bc cd65 d3bd f180 37be
000002c0: 70f8 5cbd e0cf 43bd 4c8d 21bd 065e 32be
000002d0: 3429 7e3d 4035 353e 3001 d33c 5846 c5bd
000002e0: 05c8 3bbe ed0b 0fbe 40cd 63bd f01f d2bc
000002f0: 208b 35bd d190 b4bd b4ad 563d 320b 94bd
00000300: a02c d53c f255 3f3e 9818 42bd 6083 d93d
00000310: de01 13be 51f4 cabd 9074 08bd 5c60 2e3d
00000320: d050 373e 3a52 38be 40fd 7e3d 7c1e e9bd
00000330: 2adb 37be 0078 36bb 0c67 3e3e 323a 213e
00000340: b4b8 bcbd 1ce4 c73d db36 aabe 4aeb cb3e
00000350: 8f7c 9fbd 29e4 933e a62c 023f d595 bebd
00000360: ca57 643e 0f7e 8dbd dc68 71bd aa0a f33e
00000370: c844 94bd 795d 20bf dbbc 90bd ccb3 bcbe
00000380: 4302 483d 8998 dbbe e291 053e 31f4 03bf
00000390: e603 52be 7414 a8be 8ff8 25bf 87b4 40bf
000003a0: f366 bcbe 0359 5dbe af19 b63e 2c42 b9be
000003b0: afdd a6be fdaa 31be 0d6c 52be 7f54 87be
000003c0: d3d8 a63e e0ed 523e 5856 233f a47a 0f3f
000003d0: c3c3 2fbf 80f5 efbd f0df 43be b6c4 21bf
000003e0: 2025 f23d f814 543d 4e10 d33e 9f5f 2d3f
000003f0: 49af 72be d0fa ee3e 7d8d c53d 30a4 08bd
-0.32477385 0.31580055 0.03435416 0.13921317 0.51079905 0.14953706 0.28839612 0.09539372
-0.31726718 -0.23690356 0.83781254 -0.12883726 0.654584 -0.5971768 0.1267878 -1.9098201
-0.06127845 -2.2237892 0.6799633 0.10888919 0.25493896 -0.5351724 -0.046400465 -0.45122328
0.054303866 -0.4049847 0.021677816 -0.18269026 -0.07900033 -0.5033859 -0.27662417 -0.42948326
-0.18837464 -0.33634531 -0.68454397 0.15720849 -0.67200214 -0.27118826 -0.22862539 0.040379904
0.17033027 0.1305591 0.39852586 0.030510563 0.2686482 -0.17978625 0.30502632 -0.29597118
0.034252185 0.15132675 0.022195945 1.301284 0.021216454 -0.37789443 0.13816074 -0.4387848
-0.10813676 -0.14889462 0.12408474 -0.42596883 0.07481382 -0.017819284 -0.2517083 0.081433244
0.09918996 -0.72452515 0.023930699 -0.90220916 0.03191565 -0.1278736 -0.38121808 0.48231104
0.032081865 -0.08731506 0.03599993 -0.28913924 -0.101575494 -0.04404238 -0.22222586 0.6652476
-0.3748268 0.31496108 -0.48626807 0.08547402 0.6953169 -0.15366077 0.39553544 -0.25246966
-0.03377344 -0.51571023 -0.5202948 0.15178487 -0.6107538 0.61750996 -0.11815077 -1.0290364
0.30334535 -0.110479094 0.08285219 -0.2201296 0.13035081 0.65323526 -0.13985734 -0.95842636
-0.120572045 0.15935622 -0.11500324 -0.028523 -0.36481547 0.6070978 -0.41902468 -0.6477304
-0.030259727 0.27209088 -0.1097172 0.34338355 -0.41803402 0.26524454 -0.35839072 -0.36713064
-0.0809254 0.3849755 -0.2234139 0.2697073 -0.44623235 0.5471056 -0.04180007 -0.18308741
0.0822953 -0.15745471 -0.024544545 -0.029581066 -0.001324967 -0.15476704 -0.0715828 -0.13025926
-0.20734397 -0.004120215 -0.11603609 0.12723613 -0.19272758 0.104351915 -0.010984665 -0.16897014
0.028769897 0.11446908 0.12255845 0.08057884 0.12490685 0.011765179 0.07278907 -0.021486746
-0.10705911 -0.07802118 -0.12652096 -0.07464002 -0.10642316 -0.1677048 0.041937564 0.13660443
0.0012812666 0.08951675 0.03679213 -0.0905822 -0.060290344 0.0063235336 -0.08120419 0.08082741
-0.18613924 0.06555408 0.13121691 -0.18003507 -0.08027833 -0.026006669 -0.10322151 -0.17920281
-0.053947866 -0.047805667 -0.03944139 -0.1741868 0.062051013 0.17696095 0.025757402 -0.09632558
-0.1833802 -0.13969393 -0.055615664 -0.025649995 -0.044322133 -0.08816684 0.05241175 -0.07228698
0.026022255 0.1868513 -0.047386736 0.10620761 -0.14356181 -0.09909881 -0.033314288 0.042572364
0.17901921 -0.18000117 0.062253237 -0.113827676 -0.17954698 -0.0027842522 0.18593997 0.15744856
-0.09214917 0.09760305 -0.33244976 0.3982795 -0.077874295 0.2888501 0.5084938 -0.09305922
0.22299114 -0.069088094 -0.058937892 0.47469074 -0.072396815 -0.6264263 -0.07067271 -0.36855924
0.048830282 -0.42889813 0.13043931 -0.5154448 -0.205093 -0.32828104 -0.64832395 -0.7527546
-0.36797294 -0.21615987 0.3556647 -0.36183298 -0.32591006 -0.17350383 -0.2054903 -0.26431653
0.325873 0.20598555 0.63803625 0.5604651 -0.68658084 -0.11716747 -0.19128394 -0.6319078
0.11823487 0.05177781 0.41223377 0.6772403 -0.23699678 0.4667573 0.096461274 -0.033359706
